Alfred.tflite (tflite, 206976 bytes, 9 tensors)

arith.constant f4 [1, 32]
00000000: 6fe4 073d 7824 b6be 0c29 b1be 854c dcbb
00000010: b920 15be 721a b6be 5c02 d7bc b166 27bd
00000020: b94f 113d 6d4f 253e 09e3 5d3e 5285 db3d
00000030: dff5 b7be 9886 053e f6ae de3c b902 abbb
00000040: 48bc b4be 68d1 283d ee6b d7bc ee68 c93c
00000050: a04f 8b3e 4f2a c83d 70ef b3be 7816 d83d
00000060: a6df fa3d 00e5 54bc da1b 5cbd 379a adbe
00000070: 9c38 c73d 2918 a9be 6c4c 033e 84e9 adbe
0.033176836 -0.35574698 -0.3460163 -0.006722989 -0.14563264 -0.3556705 -0.026246242 -0.04086942
0.03547642 0.1614358 0.21668638 0.10718788 -0.35929772 0.13039625 0.027183037 -0.0052188304
-0.35299897 0.04121533 -0.026296582 0.024586167 0.27209187 0.09773695 -0.35143614 0.105511606
0.12249689 -0.012994051 -0.0537375 -0.3390672 0.09727594 -0.33026245 0.12822121 -0.3396722

arith.constant1 f4 [32, 32]
00000000: 1fd9 08be 8cb9 673d ae01 003e 4e6b a9bb
00000010: 1601 e3bd ecb8 273e cf1e e7bd c3e7 223e
00000020: 0d50 913d d9cc e03d 9b2f 0bbd 36a3 0e3e
00000030: 038c e0bd ea99 053e c084 f1bd ec5d c13a
00000040: 98d8 293d c012 213d f883 8abd ac01 103d
00000050: 1a50 f63d 6b4e 84bd f41a d93d bbda 0f3e
00000060: ee1e 23bd 3c8e 143e e47d 9e3d b8cf 133e
00000070: 9175 27be 815b 133e 550d 2b3d 920d d8bc
00000080: ff2e f0bd 0003 093e aa13 2a3d 67ce e5bd
00000090: d3f2 a13d 56da 963d 173d 063e 1a37 cc3c
000000a0: f391 473d 23c9 d3bd 7e9f 4b3d eb23 9abc
000000b0: 5531 4a3d d10f bc3d 3e1d cb3d 7e64 d0bc
000000c0: 98f3 5fbc 54e7 9bbd 0721 033e aeec 30be
000000d0: 59eb 0c3e 0741 49bd 9e9f 05bd 4228 083e
000000e0: b595 043e a537 b53d 7405 253e b7e2 23bd
000000f0: 5867 f03d 1dae 45bc ef90 223d 9503 13bd
00000100: 9f35 3abd 51ba 9c3c 5502 12be a2e0 5abd
00000110: cb4a cbbd b764 8dbd ede7 793d 3ea9 a63d
00000120: 9179 0fb9 2b39 10bc b37a 8c3d 792b 473d
00000130: 758f 323e eff9 b63d 7d26 e43d 78ab afbd
00000140: 7005 953d 8982 02be 475b 0dbe 2cb1 ba3d
00000150: 42d7 20be 5b4e 1abd ac5e 10be 6d5c 8d3d
00000160: 2922 debc 8d98 2ebe f7f4 12be c7c5 473d
00000170: 37a3 3a3e 038d 38bd a3e3 183d 542e 1a3e
00000180: 3144 143e 3917 c63d a869 b13b d72c 16be
00000190: 08ef 093e 239e cc3d 64e9 1bbe a3a7 17be
000001a0: 5297 1d3e 86b2 06be f021 17be e0fe ad3d
000001b0: 28ef ff3c f2aa 973c 7591 1abe c712 f1bd
000001c0: 3cb6 b2bd d8e9 6c3c 54fa bf3d d675 0d3b
000001d0: 7657 853d 2127 c13d a878 b2bc 5add febc
000001e0: c754 01be d617 b8bd d33f 7abd d7a5 4f3d
000001f0: 1475 d63b 6f2c c53d f896 dfba 86fa 39bd
00000200: e059 f33d cd95 ea3d fabb e03d 08eb e13c
00000210: 5a29 d4bd 9895 a5bd a9ee e9bd 34d6 22be
00000220: c43b 3cbb e3f8 25be be70 febd 26bc d4bd
00000230: c41b abbd b983 8e3d 95fb 443d 0d26 043e
00000240: 75c9 c6bb ecc3 f33d 7979 733b b14c 0c3e
00000250: 1137 11bd bd2e 0b3c d160 87bd f9d6 b23c
00000260: ef72 813c ad87 e73b b598 043d 7560 1abe
00000270: aa63 003e b9ac 2b3e da18 92bb 6d5e 0cbe
00000280: 3fc0 7abd 6fce 523e bdb5 36bd e6e6 723b
00000290: 3c62 babd 458a 0ebe a9e8 21be 67ca 2fbe
000002a0: 542d 20bd e4fd 5d3d a44f 85bd 19e2 793d
000002b0: 0ec7 c53d 9e94 b03d fb7b 33bd 530e 2e3d
000002c0: eb34 4abd f3cc 013e 10c3 ea3a e78e 8c3b
000002d0: 1bd5 033e 51a9 30bd 6218 30be ae50 efbd
000002e0: 5ca5 e3bd d256 bf3d cf18 823d 77ee 8bbd
000002f0: 4665 1d3e a292 16be cca0 bebd c28e b33c
00000300: 169c c83d 3519 d83d e426 dcbd 864d 343e
00000310: 0b8e 45bd 3631 953d 7c3f 113e be2b 7cbd
00000320: c519 0e3e 0ca8 a13d 1e67 6b3c 905f e5bd
00000330: 6e62 db3d 5fac 29be f63c 5bbd 07dc 64bd
00000340: 63f4 63bd dbc5 9a3d 5ae2 2a3d 07e4 b63d
00000350: 49a4 8e3c 33fb f93c 2beb 1a3d cee7 5cbd
00000360: f014 d73b bd63 8ebd 524e f3bb b095 b93d
00000370: c7e8 dc3d 2a3c ae3d 0b28 3ebe 0035 eabd
00000380: a7fe f6bd 9e21 97bd f45f 0a3e a6dd be3c
00000390: b43d a33d 7bf1 c83d 3339 d7bd 0847 fe3d
000003a0: bb70 a43d cf72 f1bd f65d b6bd 076d a0bb
000003b0: 9f64 aa3d ad61 f83d c133 c53d 7beb 143d
000003c0: 1ee6 293e 6243 b8bd b87e d9bd 9150 8dbd
000003d0: 3a08 cfbc 09c3 d83d 909e f2bd 57ea ddbd
000003e0: 3734 1cbc 381b 24bc c7a9 8dbc bc2e 0d3e
000003f0: b591 f4bd 1da8 8c3d 1019 17be a6fc b6bd
-0.13364075 0.056573436 0.12500641 -0.0051702624 -0.110841915 0.16379136 -0.11285173 0.15908723
0.070953466 0.109765716 -0.033980947 0.13929448 -0.10964205 0.13046995 -0.11792898 0.0014752722
0.041466326 0.039324522 -0.06763452 0.035157844 0.12026997 -0.064602695 0.10600844 0.14048283
-0.03982442 0.14507383 0.077388555 0.14434707 -0.16353442 0.14390375 0.04176076 -0.026373658
-0.11727714 0.1338005 0.04152266 -0.11221009 0.07907643 0.07365863 0.13109241 0.024928618
0.048723172 -0.10341098 0.04971265 -0.018815955 0.049363453 0.09182704 0.09917687 -0.025438543
-0.013668917 -0.07612482 0.12805568 -0.17277786 0.13761653 -0.04913428 -0.032622926 0.13296607
0.12947734 0.08848504 0.16115361 -0.040011134 0.11738461 -0.012065438 0.039689 -0.035892088
-0.045461293 0.019131811 -0.14258702 -0.053436883 -0.09926375 -0.069039755 0.061012197 0.08137749
-0.0001368283 -0.008802692 0.068593405 0.048625443 0.17437537 0.0893439 0.111401536 -0.08577627
0.07276428 -0.12745108 -0.13804351 0.09115824 -0.15707114 -0.03767238 -0.14098614 0.069023944
-0.027115898 -0.17050381 -0.14351259 0.0487726 0.18226324 -0.045056354 0.037326466 0.15056735
0.14479138 0.09672398 0.0054142065 -0.14665543 0.1347009 0.099911 -0.1522575 -0.14810042
0.15389755 -0.13154039 -0.1475904 0.08495879 0.031241968 0.01851413 -0.1509455 -0.117711596
-0.08726165 0.01446005 0.09373918 0.0021585128 0.065108225 0.09431291 -0.021786049 -0.031111408
-0.12629996 -0.08988921 -0.061096024 0.050695267 0.0065447185 0.09627616 -0.0017058542 -0.045404933
0.11882377 0.114543535 0.10973354 0.027577892 -0.1035945 -0.08085173 -0.11422474 -0.15902025
-0.0028722147 -0.16208224 -0.124238476 -0.10387449 -0.08354905 0.06958718 0.04809149 0.1290514
-0.006066496 0.119026035 0.003715126 0.1370113 -0.035452906 0.00849503 -0.06610263 0.021831023
0.015801875 0.0070657344 0.032372195 -0.15075858 0.12538019 0.16765107 -0.004458529 -0.13707896
-0.061218496 0.2058656 -0.044606913 0.0037063896 -0.09100768 -0.13919933 -0.15811409 -0.17167054
-0.03910573 0.054197207 -0.06509331 0.06100664 0.09657107 0.086220965 -0.04381941 0.04249413
-0.049366873 0.12675838 0.0017910916 0.004289496 0.12874262 -0.043130223 -0.17196801 -0.1168531
-0.11115524 0.093427315 0.06352388 -0.06832593 0.15370664 -0.14704373 -0.09308013 0.021918658
0.09795396 0.10551683 -0.10749605 0.17607698 -0.048231166 0.07284777 0.14184374 -0.061565153
0.13877018 0.078933805 0.014367847 -0.11199868 0.10712133 -0.1656966 -0.053524934 -0.055873897
-0.055652987 0.07557269 0.041719772 0.089302115 0.017412322 0.030515289 0.03782193 -0.053932004
0.0065637752 -0.06952617 -0.007425108 0.09061754 0.10786586 0.08507569 -0.18569963 -0.1143589
-0.1206029 -0.07379459 0.13513166 0.02329905 0.07970753 0.09811684 -0.10508957 0.12415892
0.08029314 -0.11789476 -0.089046404 -0.0048958096 0.08319973 0.12128005 0.09629012 0.036357384
0.16591689 -0.08997227 -0.10619873 -0.069001324 -0.025272477 0.10584075 -0.1184665 -0.108357124
-0.009533933 -0.010016255 -0.01729287 0.13787359 -0.11941854 0.068680026 -0.14755654 -0.089349076

arith.constant2 f4 [32, 1536]
00000000: cd22 853b 9a8a 90bc 4f8a bebc e1d8 61bd
00000010: f640 bc3c afee 72bc 9385 203a e0cc eb39
00000020: 8963 d4bc edc5 9dbc 81bf 543c f41e a53b
00000030: d226 61bb a4d0 bbbc 08b6 d5bb b481 44bc
00000040: cba6 bd3b 526d c93c 7e78 54bc 1c39 abb7
00000050: c9a8 123c f7d0 743c 4606 a73c c168 653c
00000060: 0cd9 fb3b 2a1b 86bc 064d c83c 7c7d 8fbc
00000070: 9931 ef3c f8ec 21bd 5a5c 1cbc 3577 703c
00000080: 51f1 493b 5f4f d8bc febe 09bc 7742 1aba
00000090: b519 5f3b e76a 2fbb 5937 a3ba b21e 07bc
000000a0: 6f69 e9bc 687d 063c c6c0 d0bc b1ce a63c
000000b0: 6b2f 523c 2e4b 0d3a ad33 24bc f6d9 9bbc
000000c0: f80b 913c 3347 fd3c d8ee f8bb 9cf4 96ba
000000d0: 81d8 b0bc 9ad3 c93b 2bdc bd3c cda4 e4bc
000000e0: 2c55 2fbc 24ca b5bb 0159 d23b 76f9 023c
000000f0: 2cd2 9abb 6ac0 cfbb 3da4 023d 8b40 c0bc
00000100: 194f 2abc 1681 6d3c ceff c63c b6d0 9f3c
00000110: db08 c8bb 59f4 2b3d d12c c2bc 29bc 7ebb
00000120: 7a34 0b3d a7f0 883b 361b a63c 11f0 113d
00000130: 7dd2 3e3d b8a5 daba 3150 e0bc b8c7 bfbb
00000140: 435c f23b 4dcf 423c bb44 d5bc 4ec6 dd3c
00000150: 03c3 acbb 326e 84bc 6275 10bb dd50 123c
00000160: 0283 afba 2893 e13b f769 423c 1f51 05bd
00000170: 5c1d 8ebc 584f e3b9 6418 0bbc ae57 dd3c
00000180: ff5e 00bd cd1b 2f3c 2ce8 77bc 5a9f f1bc
00000190: 9581 563c 7b0e c23a 8b5f d13c 2824 26bc
000001a0: b937 07bc 5fe2 c9bb 862c 17bb 1c88 873c
000001b0: d83b 2c3b 2ccf 743c d806 4abc 09b4 bcbc
000001c0: a668 03bb c7a5 ca3c 65a6 683c 7971 933c
000001d0: 308b 57bb 8883 013c 4bb3 55bc 1a7a 163c
000001e0: 32e5 6fbc d99d d33b fc4f 493c ca7a 6f3c
000001f0: d872 293b 2b16 f23a 54f1 0c3c 5146 983c
00000200: 8bfb 543c 2a30 59bd daab fabc 04f6 8ebc
00000210: 07ba a3bc fbf2 18bc f7c4 1dbd df33 16bc
00000220: 26e2 983c e0b0 d43c 7374 b63c 3eae 65bc
00000230: 452f 27bc aedb 6ebb b912 b73b 3d0e 363c
00000240: 27c3 b93b 7c00 68bc b37e a23c c6e0 c63b
00000250: 3b17 cf3b 3fb2 973c ba5c 843c 1611 8b3c
00000260: 0db0 99ba 6d48 d5bc 277c 093b c608 4ebd
00000270: 8438 0b3b 3d71 58bc 0daf 1d3d 09de 693c
00000280: 4c43 4dbc c25c c23b ebbe 323d 5e97 83bc
00000290: 52cf 03bd 14aa dd3b a26c ed3b 13d9 713c
000002a0: dc29 233d b5e2 cabb 4c3f 613c bdee d73c
000002b0: ef4e 2c3d 34e5 cb3a 2221 d839 0243 953c
000002c0: 6a57 e1bb 19c0 123c a782 95bb e5cb 9abc
000002d0: 6dd2 a83c 0cb7 973b 6371 84bc de12 18bc
000002e0: 4e32 aeb9 0dea bf3b 7dd5 46bb 6519 b7bc
000002f0: 559a a73c ddac 843c dcf4 46bd dd2c 75bc
00000300: a3a6 6b3c 2e0e a73c 1031 8f3c 112f 95bc
00000310: d086 953c 082b a8ba ca42 403b 0e1b cabc
00000320: 28a1 9dbc 74f5 c73c e2ce a9bc 8436 9d3c
00000330: 7b06 06bd 944e d7bb 432e 07bc bf79 82bb
00000340: d83c 2d3c 0d18 b9bc c7bb 383c 6ce8 9abb
00000350: 7357 eabc 5968 52bc 308d b43c b358 d7bc
00000360: b840 01bc 789a a23c f6ec 8b3c 5ec2 073c
00000370: 96e5 50bc 75cf b03b c1e7 8f3c 5562 8cbb
00000380: 76bc 24bc 88cf abbc 5c6a bebc 73a2 0f3c
00000390: 86f4 72ba e1b0 ea3c 719f cabc 2233 3a3c
000003a0: 45ae 283c b655 343d f31d d43b 7d15 4c3c
000003b0: deea 9e3c 2c2a 8cbc c443 61bc acec a1bb
000003c0: 51c7 3ebc 756a a63c bfed c3bc 0017 bebc
000003d0: a563 3c3b bae6 b53c 68d2 1ebb f65f 44bc
000003e0: 6595 a23b 976c aa3a 7009 b5bc 1c67 c2bb
000003f0: e9c1 f5bc d99d 633a 32c5 993c 73ab c3bc
0.0040629865 -0.017644215 -0.02325931 -0.055138472 0.022980195 -0.014827414 0.000612342 0.00044975337
-0.025926368 -0.019259417 0.012985111 0.0050390903 -0.0034355414 -0.022926636 -0.006521944 -0.011993814
0.0057877055 0.02458826 -0.012968181 -2.0411382e-05 0.008951374 0.014942399 0.020388734 0.014002026
0.007685786 -0.016370375 0.02445079 -0.01751589 0.029198455 -0.03953263 -0.009543503 0.014676859
0.0030814002 -0.026405035 -0.0084073525 -0.0005884538 0.0034042422 -0.00267666 -0.0012452408 -0.008247064
-0.028492657 0.00820861 -0.025482547 0.02036223 0.012828688 0.0005389926 -0.010022086 -0.01902483
0.017705902 0.03091774 -0.007596832 -0.0011516991 -0.021587612 0.006159258 0.023176273 -0.027910614
-0.010701459 -0.0055477787 0.0064193015 0.007994046 -0.0047247615 -0.006340076 0.03189491 -0.023468276
-0.010394835 0.0144961085 0.024291899 0.0195087 -0.0061045713 0.041981075 -0.02370301 -0.0038869476
0.033985592 0.0041790786 0.020276647 0.035629336 0.046587456 -0.0016681468 -0.027381988 -0.0058526658
0.0073962524 0.011890245 -0.02603375 0.027072098 -0.0052722706 -0.016165826 -0.0022042622 0.008930412
-0.0013390484 0.0068839975 0.011866084 -0.032548066 -0.017347984 -0.0004335593 -0.008489702 0.027019348
-0.031340595 0.010687781 -0.015131038 -0.02949493 0.013092418 0.0014805341 0.025558254 -0.010140456
-0.008253031 -0.0061610187 -0.002306731 0.016544394 0.0026280787 0.014941972 -0.012330733 -0.023035066
-0.002005139 0.024737252 0.014199828 0.017998444 -0.0032889359 0.007904895 -0.013043235 0.009184385
-0.014642047 0.006458026 0.012287136 0.014616678 0.0025855806 0.0018469741 0.008602459 0.018588217
0.012999426 -0.05302445 -0.030599523 -0.017451294 -0.019986166 -0.009335275 -0.03851792 -0.0091676405
0.018662523 0.025963247 0.022272324 -0.014018593 -0.010204141 -0.0036446857 0.0055869487 0.011111793
0.005669016 -0.014160272 0.019835806 0.0060692756 0.006319908 0.018517612 0.016157497 0.01697592
-0.0011725441 -0.026035512 0.0020978542 -0.050301336 0.0021243403 -0.013210592 0.03849702 0.014274129
-0.012528252 0.0059314677 0.043639105 -0.016063388 -0.032180138 0.0067646597 0.007245616 0.014761227
0.039834842 -0.0061915764 0.013748001 0.026358956 0.042067464 0.0015555979 0.00041223416 0.018220428
-0.0068768756 0.008956932 -0.004562694 -0.018896053 0.020608151 0.004629975 -0.016167348 -0.009281842
-0.00033225346 0.0058567584 -0.0030339651 -0.022350976 0.020459333 0.016195709 -0.04857336 -0.0149643095
0.014382991 0.020392504 0.01747945 -0.01821092 0.01825276 -0.0012830207 0.0029336684 -0.024671104
-0.019241884 0.024409033 -0.020728532 0.019191034 -0.032721024 -0.0065706465 -0.008250776 -0.0039817984
0.010573588 -0.022594476 0.011275238 -0.004727414 -0.028606152 -0.012842261 0.02203998 -0.026287412
-0.007888965 0.019849047 0.017080765 0.008286087 -0.01275005 0.0053958246 0.017566564 -0.004284183
-0.010054698 -0.020972982 -0.023244075 0.008766758 -0.0009268004 0.028648796 -0.02473423 0.01136473
0.010295455 0.044027053 0.006473297 0.012456295 0.019399103 -0.017109953 -0.013749067 -0.0049415436
-0.0116442 0.020314435 -0.023917077 -0.023204327 0.0028745916 0.022204746 -0.0024234299 -0.0119857695
0.004961657 0.0013002333 -0.022099227 -0.0059327018 -0.02999969 0.0008682884 0.018770788 -0.023885464

model_8/tf.__operators__.add/AddV2/y f4 [32]
00000000: 6fdf 5f3c 9cb0 ad3c d546 cd3b 52ae e9ba
00000010: 9ef9 7a3c 831e 1e3c 08de ebbb 946f a0bc
00000020: a363 ba3c 1340 aa3a a482 8cbc 91c6 963a
00000030: bdcc e9bb 0b16 ef3c dd38 70bc ea98 773c
00000040: 7dfb 463c 43f1 083b 3644 a1bc ccf2 a8ba
00000050: d900 c53c 389e 8f3c 0d5d 283c 945a 11bb
00000060: f75d d63c bbf0 cfbc ede6 553c d69f 99bc
00000070: d886 dc3c 196b 65bc eaf8 a4bc 9fc3 a83c
0.013664111 0.021202378 0.0062645474 -0.0017828441 0.015318302 0.009650829 -0.007198099 -0.019584455
0.022752589 0.0012989066 -0.017152138 0.0011503269 -0.0071350024 0.029185316 -0.014661995 0.015112141
0.01214492 0.0020895756 -0.019685846 -0.0012889742 0.024048256 0.0175315 0.010276091 -0.0022179233
0.026167853 -0.025383344 0.013055545 -0.018752974 0.026919767 -0.014002585 -0.020138223 0.020601092

model_8/tf.__operators__.add_1/AddV2/y f4 [32]
00000000: 6fce 36bc f9bf ecbc 9921 0d3d 96d2 ffbd
00000010: f18e a6bd 0ece 58bc e4c4 80bd 3f36 833d
00000020: 8ca4 8b3c 26a7 f53d 8ab2 223e 0651 993c
00000030: d5ed 9d3d c78c e33a 21de 9c3d 992b 563d
00000040: acfc 29bc bfe9 5fbd 98ae 083c cb03 583d
00000050: d5cf 4abd 8f49 c33d ae85 fb3d 79da f93c
00000060: a37e 24be e88f 433d 022b 24be ae1b 1e3e
00000070: 5c59 24bd 4b80 90bd 88ee 2a3e 5f78 813d
-0.011157616 -0.028900133 0.03445587 -0.12491338 -0.08132733 -0.013232721 -0.06287554 0.06406831
0.017046236 0.11994772 0.1588842 0.018715393 0.077113785 0.001736068 0.07659555 0.05228767
-0.010375183 -0.054666277 0.008342408 0.052737992 -0.04951461 0.095355146 0.12281357 0.030499684
-0.16063933 0.04774466 -0.16032031 0.15440246 -0.040124282 -0.0705572 0.16692555 0.06321787

model_8/tf.math.add_2/Add/y f4 [1, 32]
00000000: 69b7 31bb 2480 a4ba e897 f2bb bebf 0239
00000010: 45ae b7ba ea18 46bb 3680 bebc ecf5 a7bc
00000020: c99b b7bc 0a08 5dbc 2d11 a4bc 90eb 1b3d
00000030: 97c5 a43b cf0d 0b3b 694b 11ba 76cd 88bc
00000040: 2f92 b4bc 6ee6 0abc 9394 a7bc 3225 d5bc
00000050: 6e3a 8b3b f682 06ba 2bfd 0f3c c4af 9dbc
00000060: 5e70 353c 928c 73bc e427 81bc 0098 a7bc
00000070: 34bd 1dbb 7af9 17bc 2109 06bd 5d38 453c
-0.0027117378 -0.0012550396 -0.0074033625 0.00012469196 -0.0014013728 -0.0030227252 -0.023254495 -0.020503007
-0.022413151 -0.013490686 -0.020027721 0.038066447 0.0050284374 0.0021217947 -0.0005542548 -0.016699534
-0.022042362 -0.00847779 -0.020456588 -0.026018713 0.0042489087 -0.0005131209 0.008788387 -0.01924885
0.011074154 -0.014865058 -0.015766092 -0.020458221 -0.0024069073 -0.009275788 -0.03272355 0.012037364

model_8/tf.math.add_5/Add/y f4 [1, 32]
00000000: dcd9 1f3d 55af 753e 0bc7 7b3e f72b ffbc
00000010: e427 0d3c a33a 883e fd10 a53c 723c 2abc
00000020: 5248 ad3c 0308 25ba 1fc8 0d3d ea4e e3bb
00000030: 7774 753e 8bd6 4c3d 4649 b63c 2099 46bc
00000040: a4af 863e 46e8 3d3d 32b8 a9bd 77b8 adbc
00000050: d2e5 aa3d 524a b53d 8244 9a3e 6366 853c
00000060: bcf3 13bc 19e0 abbc df22 ec3b deea 913e
00000070: c517 be3d 2c99 903e 9300 1e3d f16b 833e
0.039026126 0.23992665 0.24587648 -0.031148894 0.008615468 0.26607236 0.020149702 -0.010390388
0.02115265 -0.00062954443 0.03461468 -0.0069368975 0.23970209 0.05000929 0.022251736 -0.012121469
0.26305878 0.04636409 -0.082870856 -0.021206124 0.08344616 0.08852066 0.30130392 0.016284173
-0.009030279 -0.020980882 0.0072063054 0.28499502 0.092818774 0.2824186 0.038574766 0.2566829

model_8/tf.math.multiply_10/Mul/y f4 [1, 32]
00000000: 1003 7f3f 1e9d 803f ca86 7d3f 1f5d 803f
00000010: fa0f 6d3f 05f2 7f3f 9c23 813f 6eb1 7b3f
00000020: bc31 7b3f e791 7b3f 890f 7f3f 37de 853f
00000030: 290c 813f 0c8a 803f 5bfa 793f f670 7e3f
00000040: 2dfb 7d3f 0388 753f 238f 7b3f 73b1 7e3f
00000050: ed48 733f 34ea 803f 18cc 823f a642 813f
00000060: 0cd5 7a3f 40df 7c3f 6261 7c3f f444 7b3f
00000070: efc5 7c3f 989a 7c3f 102d 7c3f 4c3e 8b3f
0.9961405 1.0047948 0.99033797 1.0028418 0.92602503 0.9997867 1.0088992 0.9831761
0.98122764 0.98269504 0.9963308 1.045844 1.0081836 1.0042129 0.9764764 0.99391115
0.9921139 0.9591066 0.98265284 0.99489516 0.9503315 1.0071473 1.0218534 1.0098464
0.97981334 0.9877815 0.98586094 0.9815209 0.9873952 0.9867339 0.9850626 1.0878386

model_8/tf.math.multiply_22/Mul/y f4 [1, 32]
00000000: 02d2 833f 42d7 9b3f 3439 9d3f 0b49 753f
00000010: 1319 803f c524 a53f f333 813f 8ea5 7c3f
00000020: f19b 813f d337 813f 093d 873f 0c93 7f3f
00000030: d05d 9b3f a0c9 893f bdea 833f 5346 7e3f
00000040: 3f2d a43f f2c2 853f edd2 683f 6a21 763f
00000050: 2cb5 913f 6771 8d3f 732d af3f 2f98 823f
00000060: 94d9 7e3f 0d2a 7e3f ae4b 7e3f 6284 aa3f
00000070: a33c 8c3f 243f a93f d8c8 863f c8e1 a03f
1.0298464 1.2175066 1.2283082 0.9581458 1.0007652 1.2901846 1.0093979 0.98690116
1.0125715 1.0095161 1.0565501 0.9983375 1.2138004 1.0764656 1.0306011 0.99326056
1.2826308 1.0450118 0.9094685 0.96144736 1.1383414 1.1050233 1.3685745 1.0202693
0.9955075 0.99282914 0.9933423 1.332165 1.0956005 1.3222394 1.0530043 1.2568903
